Health_Care(Multi-CLassification) dataset/healthcare_model.pth (torch, 4514 bytes, 6 tensors)

fc1.weight f8 [12, 8]
0.15718218684196472 -0.34091848134994507 0.2982558310031891 0.12239176034927368 0.2166302502155304 0.21359458565711975 0.2737058699131012 -0.2986506223678589
-0.09011429402743781 -0.29460947680935734 0.08786400233148324 -0.14162111627241386 -0.1343497709066614 0.06604710884596574 -0.11910552870646679 0.1786892776336662
0.21737238764762878 0.20754757523536682 0.31621822714805603 -0.20492054522037506 -0.24083547294139862 0.286553293466568 -0.3001587688922882 -0.32865798473358154
-0.026794066629185414 -0.11532090874113037 -0.23192135679420237 -0.10267366467957384 0.04014710560216033 -0.08197995632163911 0.1680118262117933 0.14106457211325663
-0.3199957013130188 0.11044353246688843 -0.1827075183391571 -0.19698302447795868 -0.32864031195640564 0.22597643733024597 -0.23089447617530823 0.2043563425540924
-0.07434734389307465 0.20974801321943612 -0.26968661397183435 0.2251659555018385 -0.3586903769715663 -0.36809464971124367 0.08320442440397803 -0.05977133960189189
-0.27548396587371826 0.0871124267578125 0.06302046775817871 0.1755429208278656 -0.2469106912612915 0.3507101833820343 0.10076645016670227 -0.242601215839386
0.2569996349051236 -0.29312540554919764 -0.21226053541190942 -0.12039213770099888 -0.09818706417741753 0.13345763185839155 0.07108044870179768 0.11912130478840223
0.11241108179092407 -0.2214425802230835 0.01555529236793518 -0.019151747226715088 -0.19833675026893616 -0.13980329036712646 0.13351401686668396 -0.3351283073425293
0.13563980959659974 -0.1153637645628732 -0.14051713244950467 -0.0029455744619656427 -0.186102333771058 -0.24780258419499082 0.1947156782981868 -0.01169651468796626
0.24909409880638123 0.2690354287624359 0.03562512993812561 0.27619102597236633 0.11488872766494751 0.18110576272010803 -0.350803017616272 0.14820584654808044
-0.4425919223513285 -0.41129320112613177 -0.2507804710317533 -0.3597765880500442 0.024178837876833892 0.21239580805978356 0.1838647339809632 0.17960192059177826
00000000: 0000 00c0 8b1e c43f 0000 00c0 9bd1 d5bf
00000010: 0000 00a0 9f16 d33f 0000 0000 1155 bf3f
00000020: 0000 0040 8aba cb3f 0000 0040 1157 cb3f
00000030: 0000 00a0 6584 d13f 0000 0080 171d d3bf
00000040: 44fe bff9 ba11 b7bf 1a39 ffb4 e1da d2bf
00000050: 4567 8258 417e b63f 6611 6807 a420 c2bf
00000060: 3e75 2290 5f32 c1bf 5e20 7d9c 76e8 b03f
00000070: 1c2b 912e b37d bebf 128e ca4d 4adf c63f
00000080: 0000 00c0 dbd2 cb3f 0000 0040 eb90 ca3f
00000090: 0000 0060 eb3c d43f 0000 0020 d63a cabf
000000a0: 0000 0060 b2d3 cebf 0000 00a0 e356 d23f
000000b0: 0000 0020 cd35 d3bf 0000 0080 bb08 d5bf
000000c0: ebc6 985f e76f 9bbf 5b91 96cb ab85 bdbf
000000d0: ed67 5659 99af cdbf c090 f53f d248 babf
000000e0: a740 2e53 298e a43f f735 546f a3fc b4bf
000000f0: a7df 7559 6981 c53f c8e2 ec65 670e c23f
00000100: 0000 0040 cf7a d4bf 0000 0000 0746 bc3f
00000110: 0000 00c0 f562 c7bf 0000 0060 bd36 c9bf
00000120: 0000 0060 7108 d5bf 0000 00c0 cbec cc3f
00000130: 0000 0040 f38d cdbf 0000 0040 5928 ca3f
00000140: 52b2 9072 6d08 b3bf 93d7 96dc 05d9 ca3f
00000150: 7064 cba4 8b42 d1bf 4cc8 86ef 3cd2 cc3f
00000160: 03e6 9e7b c8f4 d6bf 59e9 95dc dc8e d7bf
00000170: 4195 b299 e24c b53f 760e a859 599a aebf
00000180: 0000 0080 87a1 d1bf 0000 0000 004d b63f
00000190: 0000 0000 1c22 b03f 0000 00c0 3078 c63f
000001a0: 0000 0000 c59a cfbf 0000 0020 0972 d63f
000001b0: 0000 0080 d4cb b93f 0000 0080 8e0d cfbf
000001c0: b117 c098 ae72 d03f 8079 9d0f 91c2 d2bf
000001d0: 4aad e96c 5a2b cbbf c00e 1fe6 04d2 bebf
000001e0: 4942 8895 c922 b9bf 08e0 1dc2 2315 c13f
000001f0: 7b29 8f0a 5432 b23f 79b2 52dc bb7e be3f
00000200: 0000 0000 f9c6 bc3f 0000 0000 3b58 ccbf
00000210: 0000 0000 74db 8f3f 0000 0000 849c 93bf
00000220: 0000 0040 1963 c9bf 0000 0000 13e5 c1bf
00000230: 0000 00c0 fc16 c13f 0000 0000 be72 d5bf
00000240: 5d64 2031 a55c c13f 56e4 f0cb 7a88 bdbf
00000250: 3ffc 3224 77fc c1bf 0929 6d3f 5121 68bf
00000260: a4c3 a086 33d2 c7bf b5aa 7dbd feb7 cfbf
00000270: dc92 277f 71ec c83f 31f9 7ea0 57f4 87bf
00000280: 0000 00c0 50e2 cf3f 0000 0060 e037 d13f
00000290: 0000 0000 753d a23f 0000 0020 1dad d13f
000002a0: 0000 0000 5969 bd3f 0000 0040 792e c73f
000002b0: 0000 0080 8e73 d6bf 0000 00c0 68f8 c23f
000002c0: 2a41 fe11 6d53 dcbf 46d9 f9b7 a052 dabf
000002d0: 87a3 6388 c90c d0bf 5ea6 e261 9406 d7bf
000002e0: 30c2 be57 56c2 983f 454e b62c c92f cb3f
000002f0: 4a01 ab2d e188 c73f f0c7 9e1b 32fd c63f

fc1.bias f8 [12]
-0.11079069972038269 0.13273514928575725 0.17031410336494446 -0.20002642313825275 -0.05229586362838745 -0.1243957240011852 -0.2205699235200882 0.151840167148924
0.33282962441444397 0.3219701638328453 -0.31030717492103577 -0.169780576060243
00000000: 0000 0080 c75c bcbf fc22 9b22 77fd c03f
00000010: 0000 0040 dacc c53f c279 db40 779a c9bf
00000020: 0000 0000 86c6 aabf ccea 58ee 65d8 bfbf
00000030: 0000 00a0 a23b ccbf c0d8 0fa4 7f6f c33f
00000040: 0000 00a0 144d d53f 0fca fcbe 289b d43f
00000050: 0000 00a0 12dc d3bf 545f d6b2 5ebb c5bf

fc2.weight f8 [8, 12]
0.19805264472961426 0.2176777720451355 -0.15246090292930603 -0.27781960368156433 -0.17152619361877441 0.16668382287025452 0.13153034448623657 -0.19206812977790833
0.24546116590499878 0.04274088144302368 -0.17026379704475403 -0.20847204327583313 0.1515110433101654 0.17750201793812073 0.0950574278831482 0.19615202701163112
-0.17178916931152344 0.10306135550296748 0.15278840065002441 -0.30071332545608026 0.18578428030014038 -0.1844088666361678 -0.0014723539352416992 0.11934585027097325
-0.14153306186199188 0.1174255907535553 -0.03404277563095093 -0.026773661375045776 0.2830422520637512 -0.2338327169418335 0.1123761236667633 -0.17659154534339905
-0.214729443192482 0.01287791132926941 -0.1639937162399292 -0.0726618766784668 -0.09597229957580566 -0.10009016063949033 -0.2313380092382431 0.1901386291455594
-0.08376409113407135 -0.08564288421310588 -0.012800395488739014 0.043449728848605436 -0.04202492535114288 -0.2473845052586378 0.14096689224243164 0.10615048612027261
-0.168989360332489 0.16380728483512788 0.2527846097946167 0.15742749360193228 -0.21503038704395294 0.012796071471484878 -0.0906900018453598 -0.3020415397685809
0.1115436851978302 0.008857437448069381 -0.19732707738876343 -0.20922747833914915 -0.14042022824287415 0.1773967742919922 -0.17725378274917603 -0.1888321340084076
-0.12162590026855469 0.2401338815689087 -0.2432880401611328 -0.10760064423084259 -0.02016541361808777 -0.2710091471672058 0.20243620872497559 -0.050313860177993774
-0.16129180788993835 0.01697326808780857 -0.2610468864440918 -0.03707542340876506 -0.15600401163101196 0.07047468063538863 0.28741151094436646 0.08859937924256375
0.07099080085754395 -0.001846243656426104 -0.2011672407388687 0.08703924040844735 0.1957225203514099 -0.06236155331134796 0.2867506742477417 -0.11645318567752838
0.2849804759025574 -0.26979178190231323 0.24939429759979248 0.08588120341300964 0.2624717354774475 0.15266114473342896 0.07404160499572754 0.0005823969841003418
00000000: 0000 0000 ca59 c93f 0000 0080 dddc cb3f
00000010: 0000 00c0 d683 c3bf 0000 00e0 cbc7 d1bf
00000020: 0000 0000 92f4 c5bf 0000 0040 e555 c53f
00000030: 0000 0080 fcd5 c03f 0000 0040 b095 c8bf
00000040: 0000 0080 456b cf3f 0000 0000 22e2 a53f
00000050: 0000 0040 34cb c5bf 0000 0040 36af cabf
00000060: 0000 00c0 b664 c33f 7d55 02d9 62b8 c63f
00000070: 0000 0000 af55 b83f 6b8f 8776 821b c93f
00000080: 0000 0000 30fd c5bf 69de 5d9f 3a62 ba3f
00000090: 0000 0000 928e c33f 8789 931a e33e d3bf
000000a0: 0000 0080 c7c7 c73f e6ba a5b1 b59a c7bf
000000b0: 0000 0000 801f 58bf a2bf d31b 738d be3f
000000c0: 0000 0060 c11d c2bf 0000 0080 9a0f be3f
000000d0: 0000 0000 0e6e a1bf 0000 0000 8e6a 9bbf
000000e0: 0000 0040 5d1d d23f 0000 0000 3bee cdbf
000000f0: 0000 0080 aec4 bc3f 0000 0040 8d9a c6bf
00000100: 0000 0020 417c cbbf 0000 0000 bc5f 8a3f
00000110: 0000 0000 bffd c4bf 0000 0000 f899 b2bf
00000120: 0000 0000 a491 b8bf 5c16 993e 829f b9bf
00000130: 0000 00e0 7b9c cdbf 3277 f16c 7656 c83f
00000140: 0000 0040 9071 b5bf 6395 d42a b1ec b5bf
00000150: 0000 0000 1837 8abf 1183 d9f8 0a3f a63f
00000160: 0000 0080 4a84 a5bf 1ebe cfa3 4baa cfbf
00000170: 0000 0000 340b c23f 8c50 57a2 ad2c bb3f
00000180: 0000 0080 71a1 c5bf b551 9b19 a3f7 c43f
00000190: 0000 0080 9f2d d03f 6b7a 4188 9526 c43f
000001a0: 0000 00a0 1d86 cbbf c400 e6a3 d334 8a3f
000001b0: 0000 00c0 7537 b7bf ffba d509 a654 d3bf
000001c0: 0000 0080 208e bc3f 5f9b 5321 d923 823f
000001d0: 0000 0080 0342 c9bf a512 724c f7c7 cabf
000001e0: 0000 0040 4af9 c1bf 0000 0000 f0b4 c63f
000001f0: 0000 0080 40b0 c6bf 0000 00c0 a62b c8bf
00000200: 0000 0000 e022 bfbf 0000 0000 b5bc ce3f
00000210: 0000 0000 1024 cfbf 0000 0040 b78b bbbf
00000220: 0000 0000 3ea6 94bf 0000 00c0 3658 d1bf
00000230: 0000 0000 6ee9 c93f 0000 0000 bdc2 a9bf
00000240: 0000 00c0 35a5 c4bf 8d9e 5fbd 7061 913f
00000250: 0000 0000 feb4 d0bf b64f 0dc6 8cfb a2bf
00000260: 0000 0080 f0f7 c3bf ef68 86f0 a00a b23f
00000270: 0000 0040 f364 d23f 36ef 4aec 72ae b63f
00000280: 0000 0000 742c b23f faae fc07 b53f 5ebf
00000290: 0000 0020 d9bf c9bf e8e0 0523 3448 b63f
000002a0: 0000 0080 6f0d c93f 0000 0080 daed afbf
000002b0: 0000 0080 1f5a d23f 0000 0040 e0cf bdbf
000002c0: 0000 00c0 1e3d d23f 0000 00c0 4444 d1bf
000002d0: 0000 0000 27ec cf3f 0000 0080 4ffc b53f
000002e0: 0000 0040 56cc d03f 0000 0080 668a c33f
000002f0: 0000 0000 64f4 b23f 0000 0000 8015 433f

fc2.bias f8 [8]
0.24971866607666016 -0.27671257404933414 -0.1406984180212021 -0.02576244632923419 0.07912237802845616 -0.050800323486328125 0.19499796842139314 0.07562556862831116
00000000: 0000 0000 c8f6 cf3f 80c4 fba7 a8b5 d1bf
00000010: 0000 00e0 6702 c2bf e0ca cb81 7861 9abf
00000020: 6b93 033a 5d41 b43f 0000 0000 8002 aabf
00000030: 6f02 9484 b1f5 c83f 0000 0080 325c b33f

fc3.weight f8 [3, 8]
0.27997949719429016 0.01964237700040101 0.180840402841568 -0.17666906972402596 -0.11337419489338404 0.19104412198066711 -0.09029589500505072 -0.10697872936725616
0.24878725409507751 -0.04627061036311074 -0.29491931200027466 0.06462429356679145 -0.258629265435799 0.22405192255973816 -0.211371167007365 -0.2201017588376999
-0.1345764398574829 -0.07499586008037022 0.2069646418094635 -0.3256619687499316 -0.038583895256465967 -0.2555926442146301 0.3032518272935941 -0.16651427745819092
00000000: 0000 0020 2feb d13f 3367 549b 211d 943f
00000010: 0000 0040 c725 c73f bcf7 5692 179d c6bf
00000020: a604 475b 1706 bdbf 0000 0040 2274 c83f
00000030: 7e7e 02bc a11d b7bf 0000 0040 f562 bbbf
00000040: 0000 00c0 42d8 cf3f de10 8d0c c8b0 a7bf
00000050: 0000 0040 f5df d2bf 387f 65bb 378b b03f
00000060: e674 35c3 618d d0bf 0000 00c0 bbad cc3f
00000070: 1f97 cedc 350e cbbf 0000 0060 4b2c ccbf
00000080: 0000 0000 cd39 c1bf d36d 61be ed32 b3bf
00000090: 0000 0040 d17d ca3f 583e 554c a5d7 d4bf
000000a0: 4cc0 8eb0 44c1 a3bf 0000 0040 a15b d0bf
000000b0: 1268 2b5a 7a68 d33f 0000 0000 5750 c5bf

fc3.bias f8 [3]
0.15838338324378753 0.011341244999385078 -0.30502613123933503
00000000: 0086 a11d e845 c43f 123e f222 143a 873f
00000010: 554b 8652 8c85 d3bf
